…
2020-04-18 13:50:21.621442: I tensorflow/compiler/xla/service/service.cc:175]   StreamExecutor device (0): Tesla P100-PCIE-16GB, Compute Capability 6.0
2020-04-18 13:50:46.269646: I tensorflow/stream_executor/platform/default/dso_loader.cc:44] Successfully opened dynamic library libcublas.so.10.0
2020-04-18 13:50:47.939717: I tensorflow/stream_executor/platform/default/dso_loader.cc:44] Successfully opened dynamic library libcudnn.so.7
Model: "sequential"
_________________________________________________________________
Layer (type)                 Output Shape              Param #   
=================================================================
conv2d (Conv2D)              (None, 14, 14, 64)        1664      
_________________________________________________________________
leaky_re_lu (LeakyReLU)      (None, 14, 14, 64)        0         
_________________________________________________________________
dropout (Dropout)            (None, 14, 14, 64)        0         
_________________________________________________________________
conv2d_1 (Conv2D)            (None, 7, 7, 128)         204928    
_________________________________________________________________
leaky_re_lu_1 (LeakyReLU)    (None, 7, 7, 128)         0         
_________________________________________________________________
dropout_1 (Dropout)          (None, 7, 7, 128)         0         
_________________________________________________________________
conv2d_2 (Conv2D)            (None, 4, 4, 256)         819456    
_________________________________________________________________
leaky_re_lu_2 (LeakyReLU)    (None, 4, 4, 256)         0         
_________________________________________________________________
dropout_2 (Dropout)          (None, 4, 4, 256)         0         
_________________________________________________________________
conv2d_3 (Conv2D)            (None, 4, 4, 512)         3277312   
_________________________________________________________________
leaky_re_lu_3 (LeakyReLU)    (None, 4, 4, 512)         0         
_________________________________________________________________
dropout_3 (Dropout)          (None, 4, 4, 512)         0         
_________________________________________________________________
flatten (Flatten)            (None, 8192)              0         
_________________________________________________________________
dense (Dense)                (None, 1)                 8193      
_________________________________________________________________
activation (Activation)      (None, 1)                 0         
=================================================================
Total params: 4,311,553
Trainable params: 4,311,553
Non-trainable params: 0
_________________________________________________________________
None
Model: "sequential_1"
_________________________________________________________________
Layer (type)                 Output Shape              Param #   
=================================================================
dense_1 (Dense)              (None, 12544)             1266944   
_________________________________________________________________
batch_normalization (BatchNo (None, 12544)             50176     
_________________________________________________________________
activation_1 (Activation)    (None, 12544)             0         
_________________________________________________________________
reshape (Reshape)            (None, 7, 7, 256)         0         
_________________________________________________________________
dropout_4 (Dropout)          (None, 7, 7, 256)         0         
_________________________________________________________________
up_sampling2d (UpSampling2D) (None, 14, 14, 256)       0         
_________________________________________________________________
conv2d_transpose (Conv2DTran (None, 14, 14, 128)       819328    
_________________________________________________________________
batch_normalization_1 (Batch (None, 14, 14, 128)       512       
_________________________________________________________________
activation_2 (Activation)    (None, 14, 14, 128)       0         
_________________________________________________________________
up_sampling2d_1 (UpSampling2 (None, 28, 28, 128)       0         
_________________________________________________________________
conv2d_transpose_1 (Conv2DTr (None, 28, 28, 64)        204864    
_________________________________________________________________
batch_normalization_2 (Batch (None, 28, 28, 64)        256       
_________________________________________________________________
activation_3 (Activation)    (None, 28, 28, 64)        0         
_________________________________________________________________
conv2d_transpose_2 (Conv2DTr (None, 28, 28, 32)        51232     
_________________________________________________________________
batch_normalization_3 (Batch (None, 28, 28, 32)        128       
_________________________________________________________________
activation_4 (Activation)    (None, 28, 28, 32)        0         
_________________________________________________________________
conv2d_transpose_3 (Conv2DTr (None, 28, 28, 1)         801       
_________________________________________________________________
activation_5 (Activation)    (None, 28, 28, 1)         0         
=================================================================
Total params: 2,394,241
Trainable params: 2,368,705
Non-trainable params: 25,536
_________________________________________________________________
None
Model: "sequential_2"
_________________________________________________________________
Layer (type)                 Output Shape              Param #   
=================================================================
sequential_1 (Sequential)    (None, 28, 28, 1)         2394241   
_________________________________________________________________
sequential (Sequential)      (None, 1)                 4311553   
=================================================================
Total params: 6,705,794
Trainable params: 6,680,258
Non-trainable params: 25,536
_________________________________________________________________
None
0: [D loss: 0.693817, acc: 0.490234]  [A loss: 0.920254, acc: 0.000000]
1: [D loss: 0.656986, acc: 0.501953]  [A loss: 0.836502, acc: 0.000000]
2: [D loss: 0.568563, acc: 0.962891]  [A loss: 0.735851, acc: 0.281250]
…
